app/data/dvd/Theta2.npy (npy, 16608 bytes, 1 tensors)

array f8 [2, 1030]
0	0x3fe09cdf58342578	0.5191494677284672
1	0x3fd36426a28ba740	0.30298772691331877
2	0x3fc1eb6544205f21	0.13999620272147076
3	0x3fd4c68c5efde89e	0.32461842800661056
4	0xbfea4cc8cc923ef5	-0.8218730922253302
5	0x3fd2c41c59bf19b0	0.293219649928143
6	0xbfcc6628abdbf366	-0.2218676413685003
7	0x3fc7357628cc84c2	0.18131901733526062
8	0x3fc865a4f7eca43b	0.19060194116289772
9	0x3fd668a99ef870f4	0.35013809704265886
10	0x3fc4da3aadb95b26	0.16290982706660734
11	0x3fb68256e2abbb0e	0.0879263213534893
12	0x3fd7e9e4ee35113e	0.3736507726901158
13	0x3fc13aebd3fab53a	0.1346106324248611
14	0x3fb51577ace4d0fb	0.08235881777801872
15	0x3fddd58e872f96c1	0.46615946962115734
16	0x3fe3e51e8e401a91	0.6217186716392736
17	0xbf915ea6e57d94a8	-0.01696263099383502
18	0x3fb649fa6ebfbfe8	0.08706631854852243
19	0x3fb4d3cc4a71db1e	0.08135678117274067
20	0xbfa4e03961778597	-0.040773194454014554
21	0xbfe7d1d982d5745c	-0.7443664126727856
22	0x3fc8fa94dbe29188	0.1951471398980511
23	0xbfd20a58a02de204	-0.2818814815759938
24	0x3f9381d9dc8a3362	0.019050029836353295
25	0xbfe3f74256900872	-0.6239329996754022
26	0x3fbe59417e0cdebf	0.11854943587683929
27	0x3fc58a123208af1a	0.16827609484732237
28	0xbf9b1adc40359bfc	-0.02646965162184854
29	0x3fe3603d121e3bc9	0.605497870814241
30	0x3fc9b88b8f147b4f	0.2009443710930676
31	0x3fc1fe84d839e73c	0.14057980115813418
32	0x3fa791d0d906f102	0.04603436135536933
33	0x3fd86faff6e21e5d	0.3818168555230608
34	0xbfd21f14a5c68d7c	-0.28314701260588726
35	0xbfb66b4dd781015c	-0.08757483016325324
36	0xbfd42ff4043900e6	-0.31542683040971864
37	0x3fc3a7f2ba6d4fde	0.15356287100678306
38	0xbfb2e1b9d7818577	-0.07375680457473331
39	0x3fb69ee0cc4829fc	0.08836178767538877
40	0xbfbe5203ebdc2568	-0.11843895443248231
41	0x3fd72906f5322b40	0.36187910027426895
42	0xbfcedf063197ce69	-0.24118115827114942
43	0x3fab832647247ba1	0.053734966453922846
44	0x3fc417f8f257c36a	0.1569815810503557
45	0xbfc4e95fddf46073	-0.16337202394129555
46	0xbfcd2bedaf4fc764	-0.22790309009684073
47	0xbfc7bc708001a93f	-0.18543821573559602
48	0xbfd12465698c28be	-0.2678464442002556
49	0x3fd61fe742a3f8fc	0.3456972265993412
50	0xbf838170990217be	-0.009524230641783645
51	0xbfcd2f12f123c6e6	-0.22799908422853504
52	0xbfbebb7a572e6e3e	-0.12004818561984451
53	0xbfc13589340fd7b6	-0.13444628755649796
54	0x3f968937cf051130	0.02200782013939423
55	0xbfbf05b05145a2dc	-0.12118055328540883
56	0x3fd5e23faf51c398	0.3419341289618898
57	0x3fd74d9f83448ecb	0.3641127378379962
58	0x3fdd966132ed7060	0.4623034474695995
59	0xbfe6d80a13fba982	-0.7138719930929229
60	0x3fa8bcb310e709ac	0.048314662755291365
61	0xbfccfa1bded77314	-0.22638271695077405
62	0x3fc96642d79cf5c7	0.19843326118454582
63	0xbfc867274a28ada9	-0.19064799424209625
64	0xbfd09646a73672d1	-0.25917211846698957
65	0xbfcfc957e62c79ff	-0.24833201159431437
66	0xbfd81cb25e161318	-0.37675151050670896
67	0xbfe3790d5178605a	-0.6085268584456671
68	0x3f8f082751ed80bc	0.015152270496116997
69	0x3fd70bd163fbc6c8	0.36009630931867465
70	0x3fb1bf7ea2df63ca	0.06932822681791531
71	0x3fd705317a3fba2d	0.35969197214481846
72	0xbfd3469b548f0cc2	-0.3011844945687693
73	0x3fc0319a05e9ecc5	0.12651372231252914
74	0xbfde34cc036cf979	-0.4719724687055514
75	0xbfe1c1d31ac89955	-0.5549102328412042
76	0x3f9ca8fb38853af8	0.02798836262200674
77	0x3fa53cdfee3ed78a	0.04148006232519126
78	0x3fef05e4d1dfb24c	0.9694694613550126
79	0x3fd259a4a396e73e	0.2867213819077853
80	0xbfb7c7441eb413d2	-0.092884309287981
81	0xbfdd1c10918e9f74	-0.4548379346328979
82	0xbfd568548c84718c	-0.3344928142776318
83	0xbfe9c79c80d11cc8	-0.8056166187242519
84	0xbfd13c5b2961a785	-0.26930884400518834
85	0x3fe11b2c9706ff15	0.5345671605827841
86	0xbfe082baf28a2d37	-0.5159582841019191
87	0x3fc9e1d978df6914	0.20220487977969326
88	0x3fd8aad9c40a8aae	0.3854278959717402
89	0x3fe845974dba74c2	0.7584949987537117
90	0x3fd5f1e21614af5f	0.34288837581947534
91	0xbfb22f0e937da849	-0.07103053189135368
92	0xbfac48771f307db5	-0.055240366513540286
93	0x3fbefc70deea35b3	0.12103944246538027
94	0xbfd8ea82b3863d47	-0.389313388172884
95	0xbfd5b632af258d78	-0.33924548248452124
96	0x3fda2c5c99dddccb	0.40895762468376223
97	0x3fc936a57870d2b3	0.19698017483610428
98	0xbfc76ed2351b24d8	-0.1830694922739784
99	0xbfd8829e7f302945	-0.3829723589011745
100	0xbfb3a7aac593fa47	-0.076777146565271
101	0x3fd7bb833016bdbe	0.3708198518388278
102	0xbff0222371382a20	-1.0083345816261797
103	0xbfdc992408c9a67f	-0.44684697015927805
104	0xbfd134badf0d6cbb	-0.2688433817144859
105	0x3faaf07c64f05065	0.05261601192629043
106	0x3fe337e4324894b0	0.6005726797199227
107	0xbfdcda8a88fb78c9	-0.4508386934011353
108	0xbfcb44dbfc50f427	-0.21303891964080998
109	0xbf781317c09d1280	-0.005877583296584832
110	0x3fb0672ada605d30	0.06407420951324094
111	0xbfc28e56ba813af8	-0.14496883494071944
112	0x3fd416d59d5eccac	0.3138937031573714
113	0xbfd7a3f39a375db7	-0.3693818098085688
114	0xbfee396954f72c9e	-0.9445082339747335
115	0x3fdca6c88a983ef4	0.447679648729703
116	0x3fcd62f45c1ed5d0	0.22958235261982773
117	0xbf9e58543cc2c566	-0.029633823593660756
118	0x3fc00371ef783fcc	0.12510513489587394
119	0xbfc8bbe1447cbeef	-0.1932336410914028
120	0x3fb4c812c7ac4ace	0.08117787718610289
121	0x3fd41dfc9cb36304	0.31433024695211054
122	0x3fa32bde2025f656	0.03744405882296735
123	0xbfc1b5a82d203221	-0.1383562298145913
124	0xbfcf58e3dfac1ce5	-0.24490021153926658
125	0xbfc07a0fb043d3b2	-0.1287250147503563
126	0x3fb94cf64f5ff4f2	0.09883059919225781
127	0x3fc4c9175e8cab9c	0.16238681904482355
128	0xbf8d62154eeb58b0	-0.014347235175062728
129	0x3fb7bb0aeccd062d	0.09269779473563551
130	0xbf939e8088701ccc	-0.019159324958334875
131	0x3fdc0226c1a56e40	0.437631310565596
132	0xbfd6ea80fab81018	-0.35806297764088546
133	0x3fa8fdc49868337c	0.048811095814108335
134	0x3fc1fdb851552e8a	0.1405554196484114
135	0x3fd75d3a5f485222	0.36506518654758413
136	0xbfe64f1ff3e31514	-0.697158790914417
137	0xbfda619b8ecd2778	-0.4122074980301629
138	0x3fdb2e5876213124	0.4247037080392764
139	0xbfde2228cec108b6	-0.47083492461036813
140	0x3fe95823f126d2e8	0.7920093259804988
141	0x3fc74752bcb2ea0c	0.1818641110783833
142	0x3fc5f8c8bee2b980	0.1716547901209644
143	0x3fecf2e08a04b033	0.9046480842275798
144	0x3fabda67df1e35b8	0.054400678621373044
145	0xbfd0fb66d406465e	-0.26534434037703203
146	0x3fd26c0c26aaf27a	0.28784469391010925
147	0xbfd5a6453f6549ad	-0.33827334586126306
148	0x3fd62934df432339	0.34626504710154254
149	0x3fc5f187fa9c347a	0.1714334462816714
150	0x3fc87ac2a7898a88	0.1912463491490437
151	0x3fad3ac7777ae9bc	0.05708907445428532
152	0x3fca2a931e059276	0.2044242760267882
153	0xbfdedd15ed008ba6	-0.48224399704684584
154	0x3fc78026929baa31	0.18359834822270352
155	0xbfd9410aa21bc7eb	-0.39459482031736454
156	0x3fc5b93549fe894d	0.16971460450174405
157	0x3fa32f409f7a485c	0.037469882457245446
158	0xbfa2e49f08d2b735	-0.0369004915495296
159	0x3fc48f5ef050933a	0.160625331250367
160	0x3fcbc7dec5045bf0	0.21703705425235809
161	0x3fd1b9e2dac3e890	0.276970590246159
162	0xbfcb003c73c86df8	-0.21094470647300034
163	0xbfd37efcd253cb63	-0.3046257070520168
164	0xbfda40b8f0b2120e	-0.4102003431837894
165	0x3fd5719c320a11fa	0.3350592125573538
166	0x3f92c021eb62c64c	0.018311052314578455
167	0xbfd2c580ebf6980a	-0.2933046631172834
168	0x3fb4111ddc7c4d53	0.07838617928455464
169	0x3fc219518af7118f	0.1413976601162514
170	0x3fdd3d651b8dcd4c	0.45687225046932123
171	0x3fb4bfcc194cfe79	0.08105159394926344
172	0x3fa691caf235f976	0.04408106047320619
173	0x3ff0b202d130f349	1.0434597178966263
174	0x3fd0c0796d9c49e1	0.2617477007308065
175	0xbfcc697d0b994917	-0.22196925226541772
176	0x3faf338422b50410	0.060939912068086355
177	0x3fcb7356ff0c4e7c	0.21445739224929017
178	0xbfc9cce108087b1b	-0.20156491176836586
179	0x3fd2732719a6d2d4	0.28827836518329986
180	0x3fd29b707eb43bfb	0.29073727010194234
181	0xbfcbfe137cdaccde	-0.21869128796024645
182	0x3fc84bacce3d4c4a	0.18980941839490334
183	0x3fcc1572e1a2cc5d	0.2194045640695518
184	0x3fd4577c789f89fc	0.31783973483666705
185	0xbfa372025a2ff43e	-0.03797919608039323
186	0xbfd76b43c5433a7d	-0.36592191947867275
187	0x3fa4644bbc941e4a	0.03982769658074099
188	0x3fd0ea71a27be50e	0.264309319186922
189	0x3fc5c7f054b531fa	0.1701641477215075
190	0xbfe38dad4d01c836	-0.6110445503275119
191	0x3fd24eaa426dfe11	0.2860513352133874
192	0xbfdfbf292d8cd52a	-0.4960425324273553
193	0x3fcbe019cef90037	0.21777651411139384
194	0x3fdd6068f2ab4346	0.45900939653534
195	0x3fadfc95210d6736	0.05856767681571144
196	0xbfd25b3adf8776bd	-0.28681823567408654
197	0x3fca1cdd8bd5dd9b	0.204005902556429
198	0x3fe6df01a91c32b5	0.7147224715168564
199	0xbfe16a1d1ce2d699	-0.5442033352071177
200	0xbfc75578be4e161e	-0.182295887873054
201	0x3fc75359f4f6d380	0.1822311826814733
202	0xbfe6e2dc3d3a72a2	-0.7151929088464224
203	0xbfc9fd59f3773d6b	-0.20304417026498398
204	0xbfe05ad9c7cdce66	-0.5110901739521523
205	0x3fd6a3547a0fdd62	0.35371887130846436
206	0x3fe0cf17b3c14c4f	0.525279856762049
207	0x3fcf8516adf6f40f	0.24624904150360336
208	0xbfc3725db542f656	-0.15192767477667485
209	0xbfd559c76ceea13a	-0.3336046756544594
210	0x3fc8e416a51ef8bd	0.1944607073073196
211	0xbfc9c1da05884bc3	-0.20122838277947439
212	0x3fa346604e0b1df6	0.03764630272558726
213	0xbf92c83c110e84c2	-0.01834195951562801
214	0xbf97989909852af8	-0.02304305191618547
215	0xbfb6e05be263fa62	-0.08936094548332954
216	0xbfc3f54c46e9c89c	-0.15592339956817092
217	0x3fe0110ee64ce6b0	0.5020823000006285
218	0x3fe2cea90f5bef62	0.5877270984633294
219	0xbfcc1ffb95f76440	-0.21972603628708676
220	0x3f77c923c3cae050	0.00580705614691375
221	0xbfc86198d6096d8e	-0.19047842455880154
222	0xbfbb94d594be13cb	-0.10773978120239673
223	0xbfc9353657d496b0	-0.1969364098414892
224	0x3fe1c015f0d84991	0.5546979621888558
225	0x3fad6baa059c84ba	0.057462037262902624
226	0xbfe445f63b09ef55	-0.6335402634717676
227	0x3fdda50054516e86	0.4631958793085932
228	0x3fd14e440ec78d17	0.27040196841535774
229	0x3ff3de0f8f04cbee	1.2417140566510585
230	0xbfed043d305d4b21	-0.9067674584024169
231	0xbfcecbfc8209e036	-0.24060016965427317
232	0xbfd7d4679e398b36	-0.37233915759695735
233	0x3fcabf843da4d291	0.20896962175324466
234	0x3fd50ac29b1bb8c4	0.3287817492226959
235	0x3fbc65054985a20f	0.1109164528367119
236	0xbf84007373c581a8	-0.009766485186163035
237	0x3fd34fc28ed36819	0.30174316356499414
238	0xbf99417df8a967c5	-0.02466389494143308
239	0x3fc35433d9742acc	0.1510071574960733
240	0x3f7767c9cd23cec8	0.005714214598117891
241	0x3f7fa64a75e36620	0.007726946698505738
242	0xbfd2c71ddbc72138	-0.29340311491661764
243	0xbfa527ff879fa8dc	-0.04132078676760084
244	0x3fa91802c59ae54c	0.04901131307765158
245	0x3fc9383ad5290c64	0.19702849777431475
246	0xbfd7fcf8c30cf110	-0.3748151688376007
247	0x3fbe379a13fca91d	0.11803591716730862
248	0x3fd6bc63f013a958	0.3552484364032771
249	0xbfd6c94587e096fe	-0.35603464383380856
250	0xbfcd716a1d226b7f	-0.23002363607960416
251	0xbfd20fb6dc059678	-0.2822091244364411
252	0x3fd392403903686a	0.305801444699347
253	0x3fd26e1928716267	0.2879698653173705
254	0xbfc9a38603467e82	-0.20030284080438682
255	0xbfb9ca86154eb480	-0.10074651737405027
