app/data/books/Theta2.npy (npy, 17136 bytes, 1 tensors)

array f8 [2, 1063]
000000 ae 6b 55 90 78 41 d4 3f 30 2b f3 61 3f 07 c1 bf
       0.31649602980695135 -0.13303367884358286
000010 fe 47 dd 50 08 ce d3 3f 4c 63 b9 76 f0 e4 b7 bf
       0.30945022484695517 -0.09333708666362134
000020 5f 81 74 b9 7f 62 ae bf 46 24 ff df 17 b2 bc bf
       -0.05934523714882078 -0.11209248751323839
000030 98 0f fe e9 b8 84 9f 3f 77 39 fd a8 25 f5 c8 3f
       0.030779732972873924 0.19498129607604728
000040 55 d8 d8 55 13 55 a2 bf 83 70 5a f8 af 50 cc 3f
       -0.03580532477319368 0.22121238352417913
000050 e1 2b 7b ee 36 e5 c7 3f cf b8 f2 ab 4b f5 c1 3f
       0.1866825737436946 0.14029832740693002
000060 ac b9 32 43 43 96 ca 3f e3 01 19 e0 7a f9 bf 3f
       0.2077106550327249 0.12490051242003335
000070 4b 42 d8 95 01 98 d3 3f a7 cb 53 63 2d 4e d3 3f
       0.3061527217223882 0.30164656352934077
000080 da e8 89 8e 88 10 c5 3f 61 fa 0c a8 1a 7c d5 bf
       0.16456706008813776 -0.335699714767463
000090 4e 50 83 36 a6 c0 db 3f 7c cb 54 e0 51 c6 b5 3f
       0.4336333782532663 0.08505737044178646
0000a0 46 ea 68 e1 62 70 c9 bf 42 f0 e7 69 fc 15 a5 bf
       -0.19874225622500513 -0.04118336479948016
0000b0 be f0 1e 32 e2 d7 a3 3f 52 71 ae 92 9d 66 d3 3f
       0.038756435983914525 0.30313815426213353
0000c0 e9 51 c4 01 db c0 b4 3f 3c 6a e9 83 dc 26 c3 3f
       0.08106774132858842 0.14962345543865918
0000d0 6e ad 09 74 09 35 d0 3f 51 8c 6d e4 35 3a 85 bf
       0.25323711711708696 -0.010364933999602284
0000e0 74 e7 58 c8 ef 7e d0 bf f0 92 e3 5e 86 92 bd bf
       -0.2577475983158515 -0.11551704231858273
0000f0 ca 74 86 9c 66 29 a8 bf 3e 5e eb 56 90 34 b0 bf
       -0.047190863234598604 -0.06330206033759908
000100 d8 0a 06 96 5e 7c b3 bf c2 c7 48 87 7f 21 c5 bf
       -0.07611647761045093 -0.16508478265455834
000110 19 40 14 14 f0 e2 d0 bf 6d c7 8b 13 e9 a9 bb 3f
       -0.2638511844716063 0.10806137778470566
000120 50 f7 62 f5 15 ba 90 3f 9f 2a e0 6a a2 f7 d6 bf
       0.016334860899170522 -0.3588644069392703
000130 0d da 23 52 ff a6 df bf 4e 2a 82 53 91 6c a8 3f
       -0.49456770917404996 0.04770330566778523
000140 de 31 0f 3a 21 24 8f bf 96 51 90 2e dd e8 b2 3f
       -0.015205630859690563 0.07386572253046206
000150 30 5d 3d 6a 3f b1 bd bf b1 f4 1a 85 91 31 b5 3f
       -0.11598583549254182 0.08278760432854672
000160 3f eb 7d ff 52 f4 b9 3f 76 7c 0f bd 45 73 b3 bf
       0.10138434159845831 -0.07597766748175325
000170 f4 88 3c 1b 92 3c c1 3f 79 8b 97 e6 e3 7e c3 3f
       0.13466097192674165 0.15230988273023252
000180 da 95 bd 21 93 17 d0 bf 10 7c e7 b2 b5 31 89 3f
       -0.2514388875482304 0.012301845094894431
000190 8a 5d e0 4f f8 56 c1 bf 58 80 ae 3d 85 b8 80 bf
       -0.13546661281791855 -0.008164444870829055
0001a0 3a 60 41 ec c5 45 a0 bf 40 2b 79 81 a0 6a c0 bf
       -0.03178232678391209 -0.12825399705828922
0001b0 12 a0 10 cd 60 3b c9 bf 50 78 8e 9b 12 8b 93 bf
       -0.19712457669197697 -0.019085207695404727
0001c0 2e 00 4e 33 ae c9 b7 3f b6 3d 77 84 27 56 ac bf
       0.09292114975505747 -0.05534480564130766
0001d0 38 0c 98 50 b5 24 da bf 46 24 9b 92 64 29 c0 3f
       -0.40849049444676977 0.12626320990082912
0001e0 39 4c 61 d0 86 66 c0 bf 2f 87 fb f1 74 dc de 3f
       -0.12812886404808113 0.48220561629397
0001f0 3b 6a f5 39 c8 84 cf bf bc ae ab 78 bc 64 cb bf
       -0.24623968915951075 -0.21401172535057877
000200 44 a5 ed ca ad e2 d3 bf c6 6e 0f c0 3a 65 d1 3f
       -0.3107103807183942 0.2718035579289161
000210 9a 73 f6 1e a2 e8 a2 bf f2 01 b1 51 b3 c6 be bf
       -0.03693110111200966 -0.1202194284860594
000220 d0 48 49 8f 8a 1e de 3f 3a fb 00 c7 13 f4 a2 bf
       0.47061408989715137 -0.03701841167684568
000230 92 03 bd b1 f3 b7 b8 3f 2a 73 d2 ad 08 e4 cb bf
       0.09655688371004903 -0.21789654242902518
000240 db 31 96 26 05 3c d1 bf 6a 67 47 14 4f 4d bd bf
       -0.26928833740455865 -0.11446089024630415
000250 04 8a ff 61 ce c6 ca bf cc 17 35 60 c1 ef d4 bf
       -0.2091920832163653 -0.3271335067296348
000260 9d 63 b8 8a 6a 1b df 3f 4c 32 55 ec e2 92 9f bf
       0.48604835078145375 -0.03083376471959047
000270 9c 9f 8f e9 f0 18 bf bf a6 38 ef 5c a2 38 a9 3f
       -0.12147432043241085 0.04926020988897166
000280 1f 6e ac 0d 95 02 c4 3f dc 8c 22 b5 62 a8 54 bf
       0.15632880370763844 -0.0012608493748665272
000290 fe ad fe 7c 5f 2f b2 3f 8f 32 e5 2b 51 7d c0 3f
       0.07103535462982077 0.12882437365842178
0002a0 52 3a 88 13 64 70 c0 bf 4a 8a 16 7c af 9b d1 bf
       -0.1284298987743165 -0.27512728803609277
0002b0 08 f0 14 1e 3a 48 97 3f b8 6c b0 21 1d 9d d5 bf
       0.022736461721464735 -0.33771446504551816
0002c0 26 95 0d cb bc 0f a6 bf eb db ef d7 db e6 d1 bf
       -0.043088817393064624 -0.27971550071327894
0002d0 24 22 7e 0d 70 10 c9 bf f6 d9 e7 f4 b0 f5 c4 bf
       -0.19581413897346167 -0.1637479015186753
0002e0 c0 70 0d f4 76 40 81 bf 55 e7 7c 10 40 e2 c6 bf
       -0.008423737833873068 -0.17877960972856025
0002f0 34 2c 70 91 14 6d d5 bf fe 76 c9 fb 2d e0 d2 3f
       -0.33478273585268714 0.2949328383309505
000300 c0 9a 7c 11 89 35 6d bf 79 0f 00 44 fd 06 ce bf
       -0.0035655667415029624 -0.23458829708408382
000310 b0 08 79 50 52 f1 c9 3f 68 c0 33 3d c3 a5 b3 3f
       0.2026770489629306 0.07674808735078076
000320 be 05 4b b8 7d 0b d0 3f 10 ee 4e 94 dd 4a d1 3f
       0.25070136067742144 0.2701944301913679
000330 77 23 0d 25 de 5c e6 bf 65 56 37 b5 7b 7a a0 bf
       -0.698836395612587 -0.03218447291480401
000340 c0 25 f7 86 a8 98 c8 3f 24 88 86 8c be ef bc 3f
       0.19215876188381564 0.1130332081870909
000350 48 76 64 5a 83 be b2 3f b0 42 b7 72 cf 3c d4 bf
       0.0732194991764682 -0.31621156885834534
000360 0c 6e 55 ba 03 9a 85 3f a8 a7 20 8c d2 15 db bf
       0.010547665714219633 -0.42320693668681963
000370 d8 22 f6 62 91 9b c5 3f 22 2d 9f 23 b3 98 d2 bf
       0.168810056038885 -0.2905700538510293
000380 17 9d 92 bf 00 8e d3 3f 78 18 60 ac 9d 2d 84 3f
       0.30554217060348904 0.00985263044641392
000390 17 b8 31 a3 b0 59 ca 3f fe 78 9b 6f d5 85 d7 bf
       0.2058621212813143 -0.36754356288101053
0003a0 aa ae f5 95 b8 24 a6 3f 14 be ce 10 c4 95 de bf
       0.043248909288050655 -0.4778909839760399
0003b0 bd 8a ed d8 56 55 c6 3f 62 78 2c 5e 60 21 d4 bf
       0.1744793471544507 -0.3145371360459476
0003c0 c6 89 2e b9 aa 59 d6 3f 00 72 2e 64 c6 99 19 3f
       0.3492228325286785 9.765885719876383e-05
0003d0 f9 53 d9 ac e8 82 d6 bf 96 de d4 dd 31 c9 b7 3f
       -0.3517400444009691 0.0929137388783324
0003e0 56 4c 99 84 61 01 ad bf 27 2a ff c0 5e e0 c7 3f
       -0.05665116065633728 0.18653473304432674
0003f0 fa 80 6c fc 67 b1 d0 bf d2 d0 56 83 c9 e9 b4 3f
       -0.26082801485792084 0.0816923089649351
000400 34 94 42 7b f1 8e cb 3f 4d a0 79 f7 eb c8 da bf
       0.21529978292997642 -0.41851329009523824
000410 2d 1f 8d b6 a5 30 9f bf 47 6c f3 9a f6 97 ca 3f
       -0.03045901228622865 0.20776255193672652
000420 d6 6e 85 16 5f 66 bd 3f 20 e4 b5 e3 80 24 aa 3f
       0.11484331416925939 0.05105974940938318
000430 e1 a4 a8 10 6c b8 e1 3f 98 08 3d 17 4b e3 d4 3f
       0.5537624669424553 0.32637288350464067
000440 66 9f 38 e1 98 23 ba 3f 66 8e d2 e9 44 f9 c3 3f
       0.10210566996158618 0.15604459206689397
000450 cc 19 6d fd 52 c2 d8 bf 6e fc 44 90 eb 19 b4 bf
       -0.386860606657504 -0.07852051040843985
000460 1f b1 09 46 60 16 cb 3f 7f 5b 06 b6 26 92 c5 bf
       0.2116203634244664 -0.16852268112117127
000470 f0 70 fb b1 89 38 af bf 81 4e f5 e5 af 33 a3 3f
       -0.06097822473177128 0.03750371629817285
000480 ce 1f 75 8a 9d d9 c6 bf fc 8f b8 3a 4a d2 d4 bf
       -0.17851609478588987 -0.3253350804754971
000490 94 d2 21 fc 6c 64 b1 3f ae 73 a5 fc c1 0b c3 3f
       0.06793862491196939 0.1487963183998579
0004a0 9c fa 6e 9c 46 b1 d4 3f fc 1a 5d 75 2f 46 b1 bf
       0.3233200576468478 -0.06747719397854363
0004b0 6a 7f f8 d0 fa 0d c5 3f 7c 6d 1e dc 5f a4 c0 3f
       0.16448912814757516 0.13001631019583815
0004c0 9a 7a d4 d2 bc 2e 94 bf cb d4 52 97 db 0b d5 3f
       -0.019709539764444096 0.32884874131862024
0004d0 f1 09 b0 85 19 a1 c9 bf de aa fb d9 b7 c1 e0 3f
       -0.20022887256352775 0.5236472375375703
0004e0 50 4a 6c c2 bb 41 73 3f e0 b1 80 14 39 42 ba 3f
       0.004701360164079363 0.10257298231653733
0004f0 75 a6 a7 2c dd 51 b5 bf 91 49 15 17 08 54 da bf
       -0.08328039493758317 -0.411378881971495
000500 19 9f 43 a3 44 99 98 bf d0 4e b5 ef f9 9d 8a bf
       -0.02402217146382588 -0.012996628406347993
000510 b4 d3 d7 15 a4 df d9 bf 4b 73 53 a9 ea 81 c9 bf
       -0.40427496083367065 -0.19927724140043276
000520 ba ca 99 0d 62 22 d9 3f e4 11 92 1b d9 f3 d1 3f
       0.3927235729999371 0.2805083054775237
000530 51 9e 68 0e 9f e5 c7 bf 08 27 45 b8 2b c8 8b bf
       -0.1866949863772214 -0.013565389214494697
000540 1c 87 57 00 37 ee c5 bf 68 84 44 30 05 99 97 3f
       -0.17133224026388738 0.02304466349699333
000550 54 6d 6a 89 8a df db 3f 85 2d 90 5d f1 d4 c5 3f
       0.43551886958603814 0.17056099957003937
000560 a8 8c ed 04 e6 9f c8 3f 92 bc 0d 5e ef 22 c6 3f
       0.19237971535321674 0.17294113247360038
000570 ec f2 ac 58 eb d2 b3 bf fc 5d 05 3e ee 50 c1 bf
       -0.07743712344103998 -0.13528230694167565
000580 c2 e9 40 75 21 60 e0 3f c0 08 1f db 51 fe 88 bf
       0.5117347040280082 -0.012203826427029774
000590 92 72 5f d4 55 9b c4 bf ba 88 98 5b ff dc d1 bf
       -0.1609904562927978 -0.27911361641794097
0005a0 ec 12 a5 70 04 86 d2 3f 9d ee e4 fe 12 6a c1 3f
       0.28942976952048016 0.13604962774285392
0005b0 04 a4 e0 cc b9 26 9a 3f d6 a5 6a 57 b8 3d d8 bf
       0.025538352136354817 -0.3787670949628511
0005c0 2f 38 9d ee 28 44 c0 bf 8c 47 4f 90 15 1e d2 bf
       -0.12708007479744896 -0.28308619587652895
0005d0 c8 49 75 2e 0b 8f bb 3f fb 19 1b 2a 3d e2 97 bf
       0.10765142330391264 -0.023323970503747998
0005e0 38 4d 8b 54 7c 00 d3 bf 1e 6d e5 58 f4 52 b6 bf
       -0.29690464264168126 -0.08720328493420879
0005f0 00 65 af 64 a3 e0 90 bf ba fe a5 f9 83 e1 aa bf
       -0.016481926937420788 -0.05250179693666497
000600 8e 94 67 56 9d 5b a8 bf 0e c4 41 b0 db c6 bd bf
       -0.04757396392577916 -0.11631558468958778
000610 f4 b4 ff 40 ee 6a c6 3f 68 60 fe b9 53 2a ba bf
       0.17513826535961352 -0.10220835963116459
000620 f2 f3 d3 38 6f bf a0 bf c0 e2 fb fe b3 c1 8c 3f
       -0.03271052902889683 0.014041334361068691
000630 10 4e 8e e9 cf 83 da bf 06 d8 78 2f 57 d6 d0 3f
       -0.41429517563048623 0.2630823100656702
000640 a8 d1 4d 32 3f 08 d1 bf 7e e4 79 53 91 f6 c3 3f
       -0.2661283484697159 0.15596214843734296
000650 92 2c ff c3 bb 28 c7 bf 21 58 94 0c c6 29 cd 3f
       -0.180930586530256 0.22783733000022813
000660 5c e0 5f cd a7 b7 cc 3f 3a f0 74 06 6e af 94 bf
       0.22435472038319204 -0.020200461525050374
000670 5e a6 a9 c3 52 f1 ab 3f 47 26 0c 7a 58 38 c8 3f
       0.05457552565060263 0.18921953162525737
000680 e4 a1 9f 45 ed 06 b8 bf 2e 5b 1a a3 56 91 bc bf
       -0.09385569524568599 -0.1115926883888789
000690 ca 3d 93 38 a8 85 d5 bf 56 15 a5 35 fd 0b d3 3f
       -0.3362827827922642 0.29760675657992886
0006a0 cc e9 ab 76 8f b2 96 3f 33 cb 94 be 03 15 d0 3f
       0.02216552888692451 0.251282631029585
0006b0 94 ce c9 c7 8d d1 a3 bf f8 ab 06 56 c6 ce c5 bf
       -0.03870814384290813 -0.1703727645920876
0006c0 60 e2 7c 41 0e 65 6c bf f0 9c 9c 5e db ce 9d 3f
       -0.0034661558564972744 0.02910940899815001
0006d0 87 8c 77 56 9b e2 cf bf c2 47 b8 f8 7e c3 cf bf
       -0.24910299036045933 -0.24815356392406157
0006e0 a7 8a 12 76 78 81 cb bf f0 33 35 a5 90 28 b3 bf
       -0.21488862767463 -0.0748377230967916
0006f0 d6 46 3a 41 be 43 9d 3f e9 b1 14 b8 76 3d dc 3f
       0.028578732234172254 0.44125144936222555
000700 02 34 ae 0f 56 65 e1 3f 3b fe 79 6e 2b 90 b3 3f
       0.5436201387652775 0.07641860434704821
000710 8c 06 74 40 e8 7c a6 bf c2 19 ad 32 13 c0 d5 3f
       -0.043921716564011865 0.33984832714886803
000720 32 20 97 b3 3a 46 b6 bf 14 e9 97 a1 13 72 d3 bf
       -0.08700911411790527 -0.3038376882610845
000730 22 36 1e cc a2 e9 cf 3f 9a 9a d8 63 5d 50 ce 3f
       0.24931750265788916 0.2368275392083959
000740 20 7e 40 dc d3 62 85 bf 8d 57 57 85 61 66 95 bf
       -0.010442404898696245 -0.020898364795207725
000750 e0 ee fe c5 02 66 d0 3f 2b c5 08 17 91 5f b0 3f
       0.25622624717264664 0.06395823299751117
000760 84 37 ca c7 54 09 96 3f 09 be 53 f4 c2 3b b0 bf
       0.02151997060223422 -0.06341188874261418
000770 8b e5 6f 9d 66 27 c8 bf 88 f7 0a 8d 2e 85 da 3f
       -0.1887024182067701 0.4143787743922691
000780 1d 4c ca 14 ae b5 b3 3f ea b3 03 63 92 64 c0 bf
       0.07699096686910463 -0.1280692084759772
000790 f2 35 e1 00 95 88 91 3f c6 41 0d dc e9 88 a8 bf
       0.017122581652349873 -0.04791956721476569
0007a0 28 2e 9f 7c 7e d6 80 3f d1 48 a5 b5 a6 cb cd 3f
       0.008221615007548769 0.23277744168678408
0007b0 82 8a 63 85 10 a4 bb 3f f3 9f 16 37 8d 41 e1 bf
       0.10797217613757407 -0.539251906961907
0007c0 9a ce 1f 85 3e fa c0 3f d8 ed 6b 10 47 01 ad 3f
       0.13263684749801002 0.05665037227114639
0007d0 e4 9d 02 23 9a ed ad bf 4d 6d be b8 03 cf c3 3f
       -0.058453385137280184 0.15475508232780513
0007e0 50 05 c0 05 fd 49 c7 3f e7 b8 10 6b 24 c1 ca 3f
       0.1819454458309715 0.2090192339687242
0007f0 e3 fa 97 4c 90 79 a5 3f 32 7a cb 3a 35 e7 90 bf
       0.04194308218938205 -0.01650698825221237
