app/data/all/Theta2.npy (npy, 544 bytes, 1 tensors)

array f8 [2, 26]
00000000: e6ad 8290 089c 933f 2a0c dc00 9032 a9bf
00000010: a0f0 ad25 94d3 f43f 30fb 26bc 3b0b b0bf
00000020: 902f 0d8c 1838 f4bf bf68 cced f4dd 00c0
00000030: 07ff 3e34 d6dd c73f 57db f7a9 3dcb f3bf
00000040: 20db dcaf 7de6 d1bf bc01 629c 8e7e 03c0
00000050: 0da8 621f c06a 0340 1e15 ffdc e0a3 0740
00000060: 716a 9279 aac0 f93f 13d8 182a fa23 f3bf
00000070: bbfb 47a0 e398 0040 e280 0054 2daa d3bf
00000080: 5e73 4bec af71 0040 f134 7273 4654 00c0
00000090: 8f53 e2a0 2753 f5bf 11e3 a968 c5a7 f63f
000000a0: 8825 d531 ca92 03c0 2263 90af 9ff9 eebf
000000b0: 7b9e 90a6 eab1 fb3f 7d50 e5df 1700 d5bf
000000c0: 0686 3456 77b3 cfbf 42de 7d4b 9e3c ea3f
000000d0: 2744 434e c0c6 c13f 2fc1 6065 d5e2 a33f
000000e0: 5fc8 142b f871 f4bf 8513 7b44 1309 ad3f
000000f0: 7454 3ff3 1d98 f43f 31f6 69d2 b562 0040
00000100: ac3f 10a5 f5d7 c4bf 3774 eb1f 93b0 f43f
00000110: de6d 2a5d 52e8 d33f 5607 9038 09fa 0240
00000120: 43d6 fa4e 958f 03c0 3fd6 f1cb 38ae 07c0
00000130: c9f5 2ff1 346b fdbf 6a4b 17cf 9d67 f33f
00000140: 1f24 a0b8 f190 ffbf 8779 5452 b354 d53f
00000150: d947 f3e1 0519 00c0 90b3 44ad 8097 0040
00000160: 34b9 0a26 67c0 f43f 387d 3341 8ead f7bf
00000170: db26 79a4 4cfc 0240 26b1 541e 6965 f03f
00000180: fb88 15c1 9015 fbbf 8e51 da72 3cbe d53f
00000190: 1113 c89d 080a d13f f7b0 fe70 b5e0 eabf
0.019149907894343253 -0.04921388636105235 1.3016549560407285 -0.06267140716134345 -1.263695284916114 -2.1083773210530974 0.18645741988256523 -1.2371193541891523
-0.27969305204480754 -2.436795446148805 2.427124257276779 2.955018736395359 1.6095375775245453 -1.1962834972778225 2.0746529123275343 -0.3072617836314874
2.055511327793666 -2.041149999544921 -1.3328014645132702 1.415959748117704 -2.44667471820566 -0.9679716519341108 1.730936670917713 -0.32813069214649443
-0.247664372532242 0.8198996996351939 0.1388779050962807 0.03883997786067749 -1.2778245623453797 0.0567098637671171 1.2871379377222896 2.0481983603083553
-0.1628405624364836 1.293109059034817 0.3110547933408422 2.3720879000619943 -2.445109002141892 -2.9600692685296788 -1.8386735364323263 1.2127969827167484
-1.9728867732940285 0.3332947067264275 -2.0122182514541973 2.0739759003249176 1.296973370171668 -1.4798719927710646 2.3731930589172925 1.0247584519193622
-1.6927650015209668 0.33973609176725794 0.26623740585664374 -0.8399302679950144
