app/data/all/Theta1.npy (npy, 664128 bytes, 1 tensors)

array f8 [25, 3320]
000000 56 7f eb 33 eb d5 cd 3f f0 1d db 21 50 8c 91 bf
       0.23309078250076237 -0.017136814180757243
000010 84 0a db 1d d6 34 7f 3f 24 74 73 e3 cc 6f 83 3f
       0.007618748086033581 0.009490585986379037
000020 08 e6 bd 7f a3 80 0e bf d0 02 5e 16 84 2d 7c bf
       -5.817889174770599e-05 -0.006879344908043719
000030 80 a2 9b 38 71 40 7f bf 24 7d 60 8d 14 66 84 3f
       -0.007629816312807791 0.009960327686768418
000040 78 89 7c f0 ea a9 88 bf 08 94 70 26 b4 67 85 bf
       -0.012042842353882519 -0.010451705382431356
000050 20 d8 64 31 0c 59 6d bf bc b8 ac aa 13 51 90 3f
       -0.0035825002807099576 0.015934283535153013
000060 50 c4 a4 29 4a 0f 8f bf a0 6c 5a a7 f1 9e 3d 3f
       -0.01516588153444523 0.0004519786810789992
000070 30 03 c4 3d be 26 86 3f a8 08 b9 61 53 6f 78 3f
       0.010816084155977984 0.005965543470269598
000080 e0 cf 59 14 87 3b 84 3f 74 1f 31 eb a5 20 82 bf
       0.009879164990003575 -0.008851333847033273
000090 60 41 08 e0 5f 24 8e 3f 04 77 80 e6 fa b9 82 3f
       0.014717816376134507 0.009143791350705317
0000a0 88 2d 70 15 dd 2a 65 3f 10 e7 14 48 51 f7 86 bf
       0.0025839155237059076 -0.01121390820718518
0000b0 a1 63 a2 bd c8 20 8f bf 98 b4 14 fc 87 b0 7f 3f
       -0.015199249541454853 0.007736712637137398
0000c0 00 c5 58 ca a4 83 5e bf 80 71 43 83 6a c5 65 bf
       -0.0018624409943977516 -0.002657611878119137
0000d0 1c fb fa 48 83 6e 75 3f 80 4f 76 dc e1 0a 00 3f
       0.005232346374838295 3.059865735646674e-05
0000e0 f6 9f 73 59 7f 8d 93 3f e4 24 ac 8b 6b e4 71 3f
       0.01909445746869661 0.004368229007704037
0000f0 88 d6 4b e1 5b 68 82 3f e0 b8 35 42 54 3f 2f 3f
       0.008988111317630457 0.00023839858577496317
000100 48 9d 64 59 01 b2 8c 3f 74 cf 04 f3 1a 33 80 bf
       0.014011393108900663 -0.007909975568146634
000110 40 d6 4e 8a 9c 84 8c bf 08 37 76 8b a2 04 80 bf
       -0.013924811335395693 -0.00782134044745987
000120 b8 36 aa 70 ee 2e 8a bf c0 02 b5 a4 73 82 8a 3f
       -0.012784827054271516 0.012944129432641005
000130 40 67 d7 b5 8c f3 8b bf 60 01 71 0b b5 d8 68 bf
       -0.013648127841338842 -0.0030330215481912254
000140 40 4c a3 cb 81 aa 58 3f a8 c5 2c 0d 4e 0d 88 3f
       0.001505495789889691 0.011744127060952916
000150 58 83 20 ec 14 2b 85 bf 08 34 e0 0d d1 51 8a 3f
       -0.010336078125023171 0.012851365314441324
000160 e4 98 9b 6c 1e 66 73 bf 40 b6 28 62 c2 d9 80 3f
       -0.0047360599944339145 0.00822784292275991
000170 b8 89 67 5b a6 ad 82 bf a0 58 1c 63 3e 60 8d 3f
       -0.009120273270075127 0.014343726539248813
000180 08 fa e2 47 e0 2c 7f bf 28 3b f0 c5 91 71 85 bf
       -0.0076111565560368424 -0.010470522740460078
000190 c0 25 7d c9 aa fb 40 3f 70 58 c1 8a 30 6e 8a bf
       0.0005182823106021847 -0.012905482515787464
0001a0 a0 2e 9b ad e3 71 86 3f 30 c8 21 99 4a 40 86 bf
       0.010959414229908149 -0.010864813612190799
0001b0 48 fc ad 3e f2 66 72 bf d8 3c 28 a8 60 e0 8f 3f
       -0.004492708462634339 0.015564684993505315
0001c0 58 e2 4b 92 f8 43 8f 3f 70 1a ad 8e e6 f2 51 bf
       0.015266363110172751 -0.0010955096756376757
0001d0 80 8d 9e 32 8f c0 87 3f 4a 66 6e eb de a8 a6 3f
       0.011597746593742242 0.04425713180462461
0001e0 da 36 9f 58 18 5e 8a 3f 08 cb 99 be 56 f9 8a 3f
       0.012874784664656348 0.013170888606713685
0001f0 e0 80 74 db 45 8a 66 bf 34 2d de 41 6a 04 72 3f
       -0.002751480522093272 0.004398741786541028
000200 d0 0a 98 39 e6 f9 73 bf 10 c0 28 a9 43 fd 74 bf
       -0.004876994434655571 -0.005124344158090835
000210 e0 1a 92 83 3a 86 9c bf c0 a9 01 a3 5b 24 81 bf
       -0.027855791359367 -0.008370128547729005
000220 10 7a dc bc 74 2b 7a bf 74 d4 53 46 c6 5a 86 3f
       -0.006389099127572809 0.010915326138709804
000230 ec a6 34 a9 64 ab 90 bf 8c e5 7b 91 41 9d 69 bf
       -0.01627881319760764 -0.0031267433768077998
000240 44 8d 95 53 c0 42 80 bf 40 e9 93 8b 9e 17 7d 3f
       -0.007939817953860236 0.007102603261268492
000250 74 77 35 09 5a 25 7b bf 18 ac ed 5c f5 ad 8e bf
       -0.006627418234840355 -0.014980236910295416
000260 e8 53 04 da f6 cb 8a 3f 20 74 81 71 e8 0f 64 bf
       0.01308434346041483 -0.002448991766910172
000270 c8 57 30 e1 52 08 8c 3f 70 7c 23 d9 63 6f 6e bf
       0.013687751290529251 -0.003715224281321698
000280 b0 0f c7 5e ab 0c 7d bf ae d4 da 68 b4 57 54 3f
       -0.007092160620633267 0.001241613560904835
000290 e8 84 7a 71 4c f5 72 3f 4c 2f cc 99 55 09 80 bf
       0.004628466230913043 -0.00783030391314523
0002a0 ac 38 cd 7e 42 8e 80 bf 10 d9 62 99 bd 03 8e bf
       -0.008083838934592379 -0.014655572169755021
0002b0 30 41 6c ca a5 eb 7d bf 10 6e 54 e1 c8 bd 7d bf
       -0.007304809207895155 -0.007261070907840686
0002c0 50 84 26 b7 5f 60 60 bf f0 94 52 92 b1 87 5a 3f
       -0.001999079651071635 0.0016192659470928815
0002d0 18 95 a8 61 3c e0 40 bf 48 66 4d 6a 92 c6 7d bf
       -0.0005150122481764356 -0.007269451078934681
0002e0 98 6e 0f 4b f6 24 8c bf 90 60 58 64 bc 30 92 3f
       -0.013742374578149794 0.017764037727915183
0002f0 50 d1 bd 6d 4c 55 7b bf 34 7d e4 af b1 4f 30 3f
       -0.006673143910905857 0.00024889076293451167
000300 90 bd a9 ed 3f 73 89 3f cc 6a be 9d b7 ae 60 bf
       0.01242685264625612 -0.00203643667732698
000310 b8 25 f2 c5 c4 03 7c bf 46 b2 22 e0 6f 1a 52 3f
       -0.0068395315603395 0.001104935887762741
000320 b0 09 59 c0 72 87 68 3f a0 92 db 7b be 71 89 3f
       0.002994274257418904 0.012423980860554906
000330 98 00 de 96 41 9b 83 bf 46 5e 51 56 53 51 77 bf
       -0.009573471466638048 -0.005692792449813638
000340 d4 f7 c6 c6 e4 8e 84 3f d0 5d 96 d9 39 d3 7c 3f
       0.010038173023413956 0.007037378288621679
000350 70 2f 1e 06 d2 88 57 3f c8 7e 2c 41 90 5f 8e bf
       0.0014364291205053135 -0.014830710400530647
000360 60 52 40 3a be bf 61 bf c4 fa d7 71 83 50 88 3f
       -0.0021666255361288272 0.011872317229970071
000370 b0 be 1f cf 31 e6 7c bf b8 59 a4 cc 07 d0 3e bf
       -0.0070554681460490015 -0.00047016325392359613
000380 30 15 e1 ce 35 93 7e 3f 0c b5 56 ec 93 44 a8 bf
       0.007464609325386548 -0.04739820728296182
000390 28 9b 69 2c 20 b1 8d bf a8 0d 20 e3 72 61 86 3f
       -0.014497996669161475 0.010928056293784419
0003a0 b0 51 a9 e6 b3 c3 8b bf 30 36 46 9e fb 18 80 bf
       -0.013556867100455644 -0.007860151069304683
0003b0 f8 a5 e4 f3 69 a2 8a 3f de fa 58 ac 7e b9 81 bf
       0.013005092387703407 -0.008654584536200213
0003c0 64 d8 68 73 a0 e5 80 bf 54 a9 68 a7 2c a5 84 3f
       -0.0082504782886696 0.010080670222198641
0003d0 d8 7c f2 e7 4f cb 92 bf 3c e4 e0 83 26 48 81 3f
       -0.018353699237761173 0.008438397311794181
0003e0 10 14 57 08 2b f9 48 bf 84 28 1e 4e ce 26 70 3f
       -0.000762125026704143 0.003943258170588607
0003f0 38 a7 be bd db 59 86 bf e0 5e a1 5b 09 6a 85 bf
       -0.010913578727769754 -0.010456154927097783
000400 3c fd 6d c4 08 a8 7c 3f b8 01 64 17 4f 08 97 bf
       0.0069961874459061844 -0.02249263363137441
000410 40 8e b6 f7 87 37 76 bf 0c 2f cd 6d 3c ce 6a 3f
       -0.005424052356292786 0.0032721691372098512
000420 c4 83 12 b7 95 09 85 bf 3c 30 ee fe db 59 75 bf
       -0.010272187852310107 -0.005212649687461431
000430 00 94 1e c1 9e bc 91 3f b0 5c 74 a5 c4 d7 8b 3f
       0.017321091210437345 0.013595138835212545
000440 96 a3 0a e0 49 13 70 3f e4 be 13 1d 6b 30 86 bf
       0.003924645018437275 -0.010834538292754776
000450 88 9e 7f e9 8b 2b 8d bf 68 16 8a d1 89 4f 8c 3f
       -0.014243214667615037 0.013823582369933266
000460 dc a9 09 67 e6 50 69 3f 88 f6 af d2 e9 ea 83 3f
       0.003090333943238861 0.009725405447166283
000470 74 5c 8b 9b a7 f9 63 3f 98 35 dd 3b 9f 66 8b 3f
       0.002438380583366812 0.013379329695136374
000480 10 20 4e 11 9c ff 63 3f 88 89 0e 55 80 d4 80 3f
       0.0024412201113968093 0.008217814059950937
000490 d0 1f 65 c9 15 af 8d bf 00 c2 04 5a f8 44 1a 3f
       -0.014494104584301143 0.00010020986383519476
0004a0 70 15 3a 36 7e bf 7f 3f 20 11 be 67 f9 26 92 bf
       0.007750981345116301 -0.0177267999238363
0004b0 44 30 47 52 7c 9a 68 bf b0 d0 d1 c3 fc 36 8b bf
       -0.00300335198901361 -0.013288473821582464
0004c0 c2 d9 51 91 73 fc 70 3f c0 14 87 5f 3b d1 8b 3f
       0.004147006450799075 0.013582671978733862
0004d0 10 71 32 11 db 16 8e bf e0 95 7e 06 31 bc 8b 3f
       -0.01469203134757227 0.013542540560432081
0004e0 2a db 96 88 09 75 80 3f c4 74 e9 d8 01 70 73 3f
       0.008035730820535731 0.0047454902802119316
0004f0 78 57 15 8b 8b 55 83 bf 60 f3 13 f0 08 3c 6e bf
       -0.009440508062350736 -0.0036907362524502413
000500 00 e5 3b d5 c1 5f 7c bf f8 08 d7 47 4b a4 8b bf
       -0.0069272586440487505 -0.013496959810144635
000510 28 19 25 24 84 a5 8d bf 50 82 02 2c b1 a9 58 bf
       -0.014475853303008338 -0.001505301494070594
000520 ec aa 27 6e ff af 82 3f 20 e9 88 c5 f5 dd 62 3f
       0.009124751614725445 0.0023031044222793368
000530 28 59 03 b2 16 fb 71 3f c0 5a 4d ae b8 f3 88 bf
       0.0043898474252357725 -0.012183611697463959
000540 58 d7 cd 75 cf 18 8a 3f e4 25 28 4f db 59 71 3f
       0.01274263456592066 0.004236084629618973
000550 b0 f3 74 29 f8 2a 8b 3f 98 cb 38 5a 48 5b 8b 3f
       0.013265551343119103 0.013357701543190534
000560 a4 41 04 09 25 2b 75 3f 00 26 c3 69 5b 77 8c 3f
       0.005168099087555698 0.013899530568227014
000570 c0 79 c7 34 9f f7 75 3f 68 f4 44 5f 9b d2 8b bf
       0.005363103770348265 -0.013585294575586285
000580 80 0b fc 89 1d bb 82 3f 38 ce ad b6 79 1d 87 bf
       0.009145956777052211 -0.011286688697260336
000590 a0 cd 6f 82 f8 66 4b 3f 30 25 af 38 b7 ba 3e bf
       0.0008362496781714641 -0.0004688927953649556
0005a0 64 14 b6 7a 99 31 5b bf b0 1d e1 51 7a d3 8c 3f
       -0.0016597746679008147 0.014075236915359252
0005b0 60 8a 8b 84 0e c5 77 bf b8 b5 bc a6 bc fd 89 bf
       -0.0058031622981809805 -0.012690996015943465
0005c0 90 85 b8 50 36 25 a3 bf 38 eb 75 cb 48 68 82 3f
       -0.0373932813202017 0.00898796912109888
0005d0 b0 1e 93 d2 48 3d 5d bf ef cd d3 3d 6e 8e 88 bf
       -0.0017846308858668163 -0.01199041486913807
0005e0 88 45 07 2b 6a e3 89 bf 94 5d 99 d8 4e 13 7f bf
       -0.012640790403483107 -0.00758677291158651
0005f0 d8 06 74 c1 ed 9d 89 bf 84 2d c4 9e 45 c5 82 3f
       -0.012508256403183024 0.009165328891433296
000600 d8 a0 90 f5 56 a4 8b bf 74 a7 e3 4f 70 75 87 bf
       -0.013497046822593381 -0.0114544653301498
000610 ea 12 fb 44 56 27 7d 3f 2c f4 e9 1e 85 90 81 bf
       0.007117592802107645 -0.008576431280056772
000620 e8 37 72 35 fc cf 77 3f 70 d9 db c4 02 fb 78 3f
       0.005813584509395377 0.00609875756867094
000630 18 08 e0 c2 4a b5 7b bf b8 4e ff 2c 75 21 89 bf
       -0.006764690433557895 -0.012270846782406294
000640 38 41 c0 70 4f f0 8c 3f 00 04 31 bc c3 dc 77 3f
       0.014130230549228004 0.005825771894763854
000650 e4 c4 10 a8 7c a5 75 bf e0 f5 46 f9 59 93 8a 3f
       -0.005284773768879012 0.012976363105617617
000660 40 ad fb 06 1b 50 75 bf dc 74 e7 e7 45 53 83 bf
       -0.005203347754768217 -0.009436174525883016
000670 90 68 11 e4 5b f2 89 3f a8 7b 7f 1b 41 13 8c 3f
       0.0126692942596274 0.013708599712058803
000680 a6 01 92 bb e1 e5 6a 3f 34 54 99 3a 82 1b 77 3f
       0.003283444294140919 0.005641468722008592
000690 9c 10 a8 70 1b d6 8a bf d0 fd 59 c1 f6 c2 89 3f
       -0.013103689551833768 0.01257889535486259
0006a0 f0 7b d8 80 fe 54 8d 3f 88 dc 7c 56 4b 2a 80 bf
       0.014322269732529563 -0.007893169953247417
0006b0 e0 62 bd 99 37 56 8a 3f 6c a6 c9 9c fd 1c 81 bf
       0.012859758738771487 -0.008356076571732284
0006c0 d8 4c 56 8d 2b 00 8a bf e0 92 8b 9a a6 f8 8c bf
       -0.012695636988416956 -0.014146138755174176
0006d0 b0 aa 02 a3 99 6d 72 bf e8 d7 8f a3 a9 88 8e bf
       -0.004499054092017715 -0.014909100822460844
0006e0 c0 68 64 ce a9 97 74 bf d8 ae c0 a7 c0 00 8d 3f
       -0.005027449899239922 0.014161591643719815
0006f0 77 d4 43 e9 a9 2f ae bf 98 10 67 1f d0 f6 88 bf
       -0.05895739529106774 -0.012189508398371893
000700 a8 94 12 77 e0 b5 83 3f b8 31 82 6a b2 cd 7b bf
       0.009624246248060978 -0.006787964761440106
000710 94 e7 ce e5 2e 8a 90 bf 48 e4 7c 7d 24 69 92 3f
       -0.016152127052670176 0.017979211959048308
000720 3c 6b 7f 47 ef ab 80 bf 98 2e 0f 77 99 bf a3 bf
       -0.008140439385831415 -0.03857116297112134
000730 d0 fc 21 9a f0 b8 74 bf 64 58 51 d3 3a 7b 85 3f
       -0.0050591848868172945 0.010488948415666673
000740 68 7d 36 ef ab d6 89 3f f1 41 ae 23 51 08 79 3f
       0.012616484868714209 0.006111447287267855
000750 ec 9b 0c 73 be fd 69 3f 48 f2 d6 6a 78 59 89 bf
       0.0031727523531972415 -0.01237768245743455
000760 7c c1 4f ef b8 27 7e bf 20 1e ff b2 eb 18 6d bf
       -0.007362100984196093 -0.00355192217827828
000770 fc 1b 6a bb 4b 36 4d 3f d8 b2 dd cf 23 e8 8b 3f
       0.0008914823327622608 0.01362636545283051
000780 68 48 63 1c 42 55 7e bf 08 57 8a e2 f5 0d 79 bf
       -0.007405527349151432 -0.006116829383832963
000790 84 61 3c 1e 6b 6b 86 3f 60 cb fc f6 a2 6b 54 bf
       0.010947071895814238 -0.0012463656857561664
0007a0 08 2a 7e a0 75 04 9b bf c0 55 32 64 18 ac 6e bf
       -0.02638419906683434 -0.003744170798720886
0007b0 08 b8 ae 21 63 b0 64 3f 60 08 63 7c 40 fc 69 bf
       0.002525514236785934 -0.0031720408906901615
0007c0 88 a9 17 5f 14 1f 8e 3f 38 b2 7d cc dd 0b 76 bf
       0.014707717086783104 -0.005382410432372135
0007d0 38 26 56 28 17 d1 74 3f f0 23 cb 00 4d 9d 5b bf
       0.0050822167007794 -0.0016854526503939891
0007e0 d0 06 a1 7f 88 ba 8f 3f c6 6a 2b 3d 6a d4 80 3f
       0.015492502589157381 0.008217649451969133
0007f0 b8 ac f9 c7 2c 74 86 3f 98 c6 1b 15 71 55 81 bf
       0.0109637735869995 -0.008463748413734692
