app/data/electronics/Theta2.npy (npy, 9712 bytes, 1 tensors)

array f8 [2, 599]
000000 c0 f1 1f 3c c5 05 a9 3f 24 49 8a 8d 54 46 d7 bf
       0.04887215002961254 -0.363667619917708
000010 90 7c a1 59 ea be 7f bf f8 19 e6 bf 0c ed da bf
       -0.007750430517346932 -0.42071837177391513
000020 b2 0c 6a c7 bf b1 d6 bf c6 d6 19 41 9c 1e e6 bf
       -0.3545989463238569 -0.6912366172316176
000030 a3 d0 92 0d 92 93 c7 3f 2c 9d f0 12 35 31 93 bf
       0.18419099486130106 -0.018742398530006074
000040 7c 20 15 1e bf 02 bc 3f e1 81 15 65 15 c9 ba bf
       0.1094169090694112 -0.1046307918345586
000050 db 51 6a 88 73 64 d0 3f 44 bf 0e 2c 29 a2 ef 3f
       0.2561310608082558 0.9885450230121724
000060 37 e2 41 6d 30 77 e1 bf 98 9d 53 c9 9c 2b b8 3f
       -0.5457994588787817 0.09441547312927978
000070 2e 63 e7 94 2a 5b c9 bf dd f7 37 16 fc 48 a0 bf
       -0.19809467573829792 -0.03180682917808018
000080 88 18 8e c3 8d 18 d3 3f 4e 9b f5 11 37 20 be bf
       0.29837364289449697 -0.11767906368696154
000090 48 06 73 2e 78 17 d6 3f 2a 46 1e 14 07 4e e5 3f
       0.34518246208253744 0.6657748597082833
0000a0 fc fe bf 8f 8e d6 ad bf 94 bc c4 0b 5c 87 da bf
       -0.05827756409416726 -0.41451169156329937
0000b0 99 f3 ba 6b 04 e0 e6 bf 82 c2 0c ca 70 d3 b9 3f
       -0.7148458580119154 0.10088257725579733
0000c0 e8 ad 85 4b fe 3e c2 3f 4a f6 d2 a5 50 0d ca bf
       0.14254740417105372 -0.20353134247663923
0000d0 fc 20 b6 10 8d ed 91 3f 8e fa dc 71 b1 f1 c3 bf
       0.017507747788415337 -0.15581338939405892
0000e0 10 b4 cb a0 a8 36 a5 bf 02 c7 1f 2e 7f f4 a0 bf
       -0.04143263781393369 -0.03311536253012372
0000f0 9b a2 ba 51 91 56 db 3f 1c 03 a5 ee 6e ff ee 3f
       0.4271586702475731 0.9686808262850692
000100 ee a8 fc 8c dd e8 e3 3f 9f fc 5c 37 e6 2f b6 3f
       0.6221759561206264 0.08666838504449224
000110 b8 43 57 06 ff 0e 99 3f b2 9b 72 c7 f0 d7 d1 3f
       0.024471268426910803 0.27880496480286887
000120 e0 d1 3a 37 18 58 da bf 14 7e fc de 21 43 d3 3f
       -0.4116268672326253 0.30097243095403425
000130 f2 39 5e 98 6f cc b8 bf fc f3 84 9f 5c 75 7a 3f
       -0.09686944456027627 0.006459581193039018
000140 e2 b0 04 e6 cf 58 da bf ce f4 67 75 f3 cc c2 3f
       -0.41167066061713176 0.1468796084663268
000150 4f f7 e7 2c d1 27 d0 3f 17 37 bf d1 27 df e0 bf
       0.2524302423988631 -0.5272406670207798
000160 d7 69 49 02 4a f6 bc bf 4c be 93 eb ca c3 bf bf
       -0.1131330733855188 -0.12408130885500518
000170 40 35 78 4b 5b 8c e8 bf 60 b7 7c d7 ba 56 de 3f
       -0.767133376504411 0.4740435699812817
000180 89 7f 78 08 2a 19 d0 bf 6e b0 30 e1 00 93 b9 bf
       -0.2515359003755227 -0.09989934442336487
000190 93 87 6d 78 90 73 d7 3f ce 40 5c 2e 40 dd c6 bf
       0.3664284874013159 -0.17862703574838296
0001a0 24 34 61 58 c8 37 e2 bf 48 e2 ad 7d 9b fa e4 bf
       -0.5693093992391636 -0.6555917219803371
0001b0 92 e5 9b 22 d4 22 cd 3f be 45 69 1e 6e ed b4 bf
       0.2276253861416931 -0.08174789659940182
0001c0 dd 64 9a e2 bd 9e e8 3f c2 f5 42 97 98 0f be bf
       0.7693776536790683 -0.11742547696027031
0001d0 8d 8d aa b7 e5 2b a1 3f e0 c5 21 23 71 17 cf 3f
       0.03353803507823292 0.24290289130617193
0001e0 07 b8 13 23 ee 99 db 3f 3a c8 3f ca 4b f5 df 3f
       0.43127015519610307 0.49934668303388074
0001f0 71 1e 88 56 e8 7a c3 3f e6 6c e6 7b 27 01 e9 3f
       0.15218834138089535 0.7813908977435886
000200 d8 e6 64 ac da c5 c0 3f f2 6c e6 15 ad aa de bf
       0.13103803079302767 -0.47916724337274197
000210 a9 eb df 72 9e d0 e7 bf 20 c8 e6 f0 f0 5a e6 bf
       -0.7442161792417795 -0.6986012177569627
000220 dc 82 7b d1 fe 5f c4 3f 98 0b 5e cd 05 8e d4 bf
       0.15917954662929545 -0.32116837554365807
000230 86 d6 1a 1e 09 7c c7 bf c3 b7 c8 aa 60 c0 e1 bf
       -0.18347276658976258 -0.5547335944772772
000240 68 87 75 bd 7a 31 da bf 96 d2 96 5e 0a 6b c7 3f
       -0.40926998617043475 0.18295411699877623
000250 18 81 80 fc 49 ae bd bf f2 a9 c8 60 66 d3 ec bf
       -0.11594068922613976 -0.9008056536015927
000260 cc 19 3f 2a 19 1e da 3f 88 0d 02 14 a7 ea dc bf
       0.40808705449708493 -0.4518220610991297
000270 08 b4 ad 86 ef cf e8 3f 92 cc 29 66 f5 64 94 3f
       0.775382769626618 0.01991637645774042
000280 fe 89 4e 8e ce e5 eb 3f a9 8b 26 b6 4e d4 e0 bf
       0.8718025950841477 -0.5259164388302128
000290 1c 7a 63 b5 79 c6 d1 bf 7d 14 5b 74 60 66 dd 3f
       -0.2777389785168525 0.45937358248585963
0002a0 8e 70 3b 25 7e 84 a1 3f d8 14 d5 d8 d1 0b d5 bf
       0.03421396450514279 -0.32884641814264404
0002b0 08 2a f4 b6 4e c1 dc bf 42 09 e3 71 14 a7 e0 bf
       -0.44929855219439263 -0.5203954910614714
0002c0 ab b0 ef be ac 99 c6 bf 89 60 d0 9a 90 b1 b5 bf
       -0.1765647823625661 -0.08474067477834714
0002d0 e9 61 ab 79 a9 96 e9 3f 4c 0b b1 3d 23 5b c7 bf
       0.7996413589817709 -0.1824688006618892
0002e0 43 51 d1 60 f4 7e f2 bf 87 70 13 1a cf 60 d5 3f
       -1.1559947759570413 0.33403375193098167
0002f0 4c 2d ca ab 09 1f d3 bf 26 7b f9 d7 11 f0 d2 3f
       -0.2987693956026376 0.29590269175780504
000300 19 d6 c8 d3 58 bd df 3f ab 70 a1 a6 cf 24 c9 bf
       0.49593182260591245 -0.19643588672886855
000310 7a a4 73 de e5 f8 d2 3f f0 f0 66 0a e6 a5 ad 3f
       0.29644152377893074 0.05790633084277086
000320 25 6b 03 b0 28 66 d2 bf e4 c8 e1 29 50 24 bc bf
       -0.28748528660587375 -0.10992909452923844
000330 c3 4c 41 84 8c bf bd bf 26 44 2c 56 4e 8a 91 bf
       -0.11620405415424089 -0.01712915802915318
000340 e3 31 1c e4 c8 e0 df 3f 9a ff c6 f1 c9 2a c8 bf
       0.49809477115993966 -0.188805811934796
000350 e4 75 de ee 83 59 b9 3f 7f 64 98 89 02 24 e1 bf
       0.09902214605104792 -0.5356457412155037
000360 da 10 72 8b e3 e9 d8 bf 9f 72 e3 0f 53 0d ce 3f
       -0.389275442292513 0.23478163028530205
000370 a8 41 cd 0f 45 83 c7 bf 7a fa 38 e9 83 a2 7f bf
       -0.18369353553363266 -0.007723346021122008
000380 b3 2d cc 38 38 d8 d4 3f f4 37 d4 a2 76 11 e0 bf
       0.32569699808729097 -0.5021317653897754
000390 76 62 a1 3c 4d 34 dc bf bb 81 57 d5 a6 be a4 bf
       -0.4406922428220591 -0.040517056982710874
0003a0 8e 16 f4 51 da a8 e5 bf 24 a8 69 d4 a3 34 bb 3f
       -0.6768619156507201 0.10627197204453914
0003b0 a9 ee f3 17 70 d8 cc 3f b3 94 39 7d 14 d6 d2 3f
       0.2253551594693495 0.2943164084338818
0003c0 44 ff 23 b0 22 c7 84 bf 95 b9 13 ea a4 cc db 3f
       -0.010145445824036543 0.434365490523214
0003d0 0a 89 49 33 ed 88 e3 bf ca 55 e4 93 11 b0 dd 3f
       -0.6104646684364365 0.4638713783509415
0003e0 2a 35 e6 ad 5b c0 c3 bf 32 76 d5 ad 71 3a b0 bf
       -0.15430780402349714 -0.06339178556432826
0003f0 59 f5 54 24 b6 a6 c8 3f 06 9f e6 a9 ea d7 ba bf
       0.192587630977793 -0.10485712669344247
000400 42 80 1a f8 62 41 cb 3f 48 c0 a7 3f 80 19 d6 3f
       0.21293294062070528 0.34530645576797214
000410 f6 4b 27 eb 18 da d9 bf 5a fd 64 2d 35 cb ba 3f
       -0.4039366051121641 0.10466320379508912
000420 42 ca ad 06 61 1f d2 bf e4 61 46 c7 b1 f4 cb 3f
       -0.2831652226661029 0.21840498190137148
000430 8a 31 d8 f6 72 f2 da 3f 83 38 22 08 c3 8b e0 3f
       0.42104791742237835 0.5170607718334995
000440 f6 48 cb 1a b5 99 e1 3f 86 d4 48 84 7f 2f d9 3f
       0.5500131152460017 0.39352405470283036
000450 55 91 5e b7 85 03 e7 bf 59 f0 e7 1b 51 2a da 3f
       -0.7191799718316739 0.4088328144569054
000460 38 b7 14 50 f6 17 d0 bf c0 44 88 72 0d 5f e6 3f
       -0.2514625341453782 0.6991030919035879
000470 1e e6 34 f5 88 9d dc 3f 69 12 af 4e e6 a7 d8 bf
       0.44711517282448365 -0.3852477806470121
000480 00 bb 51 ba 7b 2c 5d 3f 18 76 be 43 b7 24 9f 3f
       0.0017806251792326644 0.030413497457280142
000490 dc a6 85 d6 f2 a8 c6 bf 38 df c3 b7 f0 7d 9f 3f
       -0.17703090166769797 0.03075386163342772
0004a0 64 69 58 db fa d4 cb bf b8 13 26 00 44 8d cd 3f
       -0.21743713102552953 0.23087358481657616
0004b0 70 f3 fc ef d4 38 b8 3f 48 cc 52 ad 20 3c df bf
       0.09461718424877374 -0.48804490018955393
0004c0 33 ed aa 22 6a 9c be bf 80 20 e2 b7 31 91 7f bf
       -0.11957419725779488 -0.007706827365957847
0004d0 bf 65 33 26 0c 53 e6 bf f2 03 45 8b 62 d1 b2 bf
       -0.6976376291378797 -0.07350746059547911
0004e0 4f 58 cd c4 ce fd bc 3f 10 2e fa a4 ec 14 e3 3f
       0.11324779801120254 0.596304247113439
0004f0 69 df 0e 62 f3 c0 c2 3f 2e 9a d7 ba 17 bf d4 3f
       0.14651338851922027 0.3241633724814247
000500 44 82 0f bb 76 d0 d9 bf c3 36 2f 07 f6 26 e2 bf
       -0.4033486201060763 -0.5672559871979604
000510 e0 67 b6 56 f2 54 d5 bf 13 be fc 53 e6 57 b3 3f
       -0.3333097311784723 0.07555999327154721
000520 18 cd 13 a1 4f 11 77 3f eb 29 e5 90 eb 80 c9 bf
       0.005631743480296401 -0.19924683165511622
000530 01 09 64 00 e3 5d cc bf ff a8 45 29 eb 4a e4 bf
       -0.22161519545631594 -0.6341453367324731
000540 ee 85 ee e0 14 8e c6 bf 0d 37 30 ae 49 8d b0 bf
       -0.17621098502154048 -0.06465588095326442
000550 5f 0c 61 02 bf 41 c2 bf 92 3b 52 d3 ba 62 d2 3f
       -0.14263141266028165 0.28727598797643694
000560 d8 0f 96 2c da 7e c7 3f 5a ed 87 6f 3a b4 c3 bf
       0.1835587232309297 -0.1539376301369469
000570 ab 14 2f 1a 32 0d b0 bf 98 cb 93 8c 29 74 f3 bf
       -0.06270135058646768 -1.215859936838319
000580 8e df 80 78 1a 77 d4 3f bf 2c 53 a1 3a 5c de bf
       0.3197694947043538 -0.4743792128981105
000590 2c aa 14 4e e3 ea ea bf b5 76 72 7e 34 ed b8 3f
       -0.8411728405965895 0.09736946189010605
0005a0 0e 31 60 22 05 70 b3 3f bc 77 71 4b 8b 69 d9 3f
       0.07592804040195153 0.39706690185073135
0005b0 de 38 d3 74 63 e1 e6 bf 61 58 31 0e 69 36 e5 bf
       -0.7150132447948427 -0.6628918912126772
0005c0 78 b5 bf 0a 98 77 d7 3f 3c 70 a4 7b 84 b4 e7 3f
       0.36667443322843196 0.7407858290566831
0005d0 a4 dd d5 e0 65 25 d2 bf 65 9e 83 0a 09 b9 d8 bf
       -0.28353259045203516 -0.3862936594655138
0005e0 fc 11 6d 38 b8 55 97 3f 50 fb 03 77 59 35 d9 bf
       0.022787931865666508 -0.3938811933766617
0005f0 5a 31 6c e9 0d e0 e1 bf e8 39 d7 06 7c 56 d0 3f
       -0.5586003836665825 0.2552785937122324
000600 a5 08 e1 87 f6 55 e3 bf cc 99 fe cf 53 bf f0 bf
       -0.6042435315978493 -1.0467107891832823
000610 dd 21 6a 13 76 ae d6 3f 26 4c bd 63 3f d4 d6 3f
       0.3543982686610699 0.3567045663850784
000620 29 6f b7 1c 2c 6d b5 bf 34 ce 3d cb b0 7e d6 3f
       -0.08369708729827309 0.35148258064075155
000630 c4 db 1b 7a 6c 8d 98 3f c9 cc 49 80 a7 de e2 bf
       0.023976988747530972 -0.5896794801359643
000640 92 a0 61 39 cc 10 a9 3f b7 3f c7 b1 6c 0d e5 3f
       0.04895628166633616 0.6578887436135038
000650 f5 a2 73 9c 8f be d0 3f f4 b5 8a ad 49 f3 d8 bf
       0.2616309192513165 -0.3898491091484566
000660 4c 01 46 46 4b 9c bd bf 3c b4 64 98 cb af bf bf
       -0.11566610780392245 -0.12377617331067453
000670 92 4e d5 62 5e 20 d3 3f eb 19 1a 70 09 cd b2 3f
       0.2988506283920539 0.07344111430038651
000680 75 66 5f 68 7e 6e d9 bf 93 92 da 57 ba a1 d1 3f
       -0.39736900513307855 0.2754960878321892
000690 18 0b e3 12 30 6a c6 bf bc 76 83 e7 2e 20 ac bf
       -0.17511559412204103 -0.054933038483551994
0006a0 f0 6c 5d c2 ae 89 ea 3f 9e 01 2f 77 75 f6 aa bf
       0.8293069645109465 -0.052661581801206156
0006b0 78 73 e0 55 70 c6 f0 3f 0e 0e 64 72 7c fa df 3f
       1.0484469751893055 0.4996634595010797
0006c0 89 ae 0c 16 0a 88 e0 bf 38 c8 b2 1d 30 db b4 3f
       -0.5166063719420474 0.08146954274232676
0006d0 1e 50 ca 3c 45 03 d3 3f 8c 01 00 1d 6c 50 f2 bf
       0.29707461296607274 -1.1446343548596785
0006e0 40 c3 7e e0 5d e3 de bf d1 ee a7 5c de 33 d9 3f
       -0.48262736247402316 0.39379080818592366
0006f0 da ce 6f 20 67 45 df 3f 30 fa 59 44 e0 f1 e3 bf
       0.48861101310397503 -0.6232758841504786
000700 3e 56 a1 dc 16 60 d4 3f 37 52 16 bb 91 d5 e1 bf
       0.3183648256866468 -0.5573204664274901
000710 3f f5 50 5e 6a de c0 bf c0 52 f0 e5 85 5a de 3f
       -0.13178758244786512 0.47427508788068096
000720 b3 af 5c 81 eb 70 d5 3f 18 66 8f 0c 4e c4 b0 bf
       0.3350170863438919 -0.06549537474293066
000730 d4 f9 0c 06 83 7f b6 3f 46 a0 37 7b 9e e8 ea 3f
       0.08788317582818844 0.8408958822810824
000740 90 56 12 72 44 4d d5 3f 84 36 af ce a4 3d e5 bf
       0.33284102573211616 -0.6637748753361881
000750 89 7b 4d 67 d1 a7 c3 3f 88 44 99 4a 97 e9 d0 bf
       0.15355889839244366 -0.2642572620871495
000760 a5 9c 38 1a 55 6c e3 bf 65 df 69 2a 51 5a db 3f
       -0.6069741737491269 0.42738751546811776
000770 6b db 9b ae 43 fe c8 bf 99 49 7b 33 03 12 e4 3f
       -0.1952595331747163 0.6271987920284118
000780 1c 50 2a ba 20 6b b8 bf 8d 8d 7a b6 69 16 a3 bf
       -0.09538464112330342 -0.0372803721668574
000790 8e 1b 94 ac 53 cc dc 3f 38 99 21 cc 2c 93 ba 3f
       0.4499711213433607 0.10380821212456659
0007a0 20 46 0e f2 d8 bd cb 3f 82 68 70 db 2f 39 d8 3f
       0.21673118418816362 0.3784904139480504
0007b0 74 ce 58 bb 57 4c d8 3f 18 72 d1 a6 85 4e dc bf
       0.3796595887717793 -0.44229260722002683
0007c0 36 7d ea 95 84 c5 f9 3f 4f 39 00 8c 96 32 c9 bf
       1.6107221466152857 -0.19685632549267004
0007d0 a6 ae 23 d9 24 90 d2 bf d4 ca 7d e6 ae 07 e2 3f
       -0.2900478477956575 0.5634378911766711
0007e0 d0 fa 4f 01 44 21 c4 bf b8 1a 9e 52 28 ef e0 3f
       -0.15726518692095803 0.5291940320610911
0007f0 de 15 53 3f 30 3a ed 3f 59 7b f0 da 2c fe e6 bf
       0.9133530842597641 -0.718527248016339
