app/data/kitchen_&_housewares/Theta2.npy (npy, 9200 bytes, 1 tensors)

array f8 [2, 567]
0.4543776007058512 0.07189168336618237 0.3074005495875529 -0.19213539618033654 -0.02775583562906568 -0.5072881295552256 -0.17242592263016265 -0.032972864894359646
-0.5040082202060525 -0.600512725998604 0.560435176919243 0.12058911019503271 0.15304846339689426 0.0401241050191254 0.11743348128840904 0.10168813771073049
-0.4521655595581757 -0.06289415207849523 -0.05722375711568009 0.04963422729866123 -0.4801682723191114 0.2448180481803433 -0.10627554086965056 0.2152734489413674
0.09557016732913846 0.13750999448459705 -0.020817391632930782 -0.1640116669206776 -0.06750536997211934 0.0804614412279542 -0.799868315743903 0.05296499403112424
-0.27146812453850655 0.18630164394966642 -0.2923981132771617 -0.20761481234021234 -0.39083621503936816 -0.24028486495286383 0.6828487572530082 -0.1962849090027147
-0.00504078487004966 -0.6666267691134201 -0.1397455878393473 0.3694856736417323 0.2517098369209445 0.07350999390526244 -0.03573503571331663 0.2173060614124235
-0.1781938856239928 0.21067061409806634 -0.31906260475803105 -0.19633637681332988 0.4405817272724078 -0.5069364242972678 0.13398374977003427 -0.2789270048729581
-0.40107235384562046 0.07642619275073521 0.12257584084630581 0.10024383674247837 -0.11303786949034944 -0.10527876284817181 0.29475241472739844 -0.2866398709826487
-0.5907839462242845 0.17757669321951822 0.2745839740918363 -0.0041700260071482545 -0.07303634180253296 -0.2588583641868947 -0.09400622560829885 0.16021199315379042
-0.06084887598054867 0.20406495701824687 0.6046717527734011 0.1729408593097791 0.11949265404704099 -0.18895837739640362 -0.11541797351906691 0.2180451836379889
0.4197697226218444 -0.2359563559818138 0.3131030531601865 0.0626772830297302 -0.3193253392795957 -0.29854872272494404 -0.13485029566230985 0.38276010140540717
-0.20339072144838405 -0.08046298046170693 0.12456335902643496 0.12686430159220563 -0.09266521319797555 0.6254280878795864 0.15598502522885388 0.049249884638399626
0.24947950288216467 -0.014697510065865947 0.09937203799485005 0.3770776386269702 0.36429577382424255 -0.56138855867761 0.19592629903497427 -0.32011393125909027
0.38032979070882056 0.020005208424893964 -0.11072624218629487 0.13590364492247126 0.5074695396433881 -0.04654278893967377 -0.37703254885661563 0.23736495965747173
0.305172824151356 -0.1723384361811312 0.15303711592002553 -0.22672979640387866 -0.3344581902287567 -0.16086804776323727 0.11814405181791968 0.06518447808859644
0.6527806539221969 -0.28222915403324095 -0.6371526121620059 0.1007401979672871 -0.3814107733617828 0.81066730112961 -0.4609567151991919 0.06192321820235619
-0.25138296086753154 0.07645140211135577 0.22198574385102754 0.3964608680103696 0.24678909064159377 -0.2455757660897811 -0.3985366216942985 0.22933881982997506
0.08250374991349307 -0.1866268772596179 -0.3218717261033685 -0.47378664282842875 0.0004351054188924258 0.4947074639575285 0.1975593941511354 0.1393891832632197
-0.17605149895162525 0.12537815045884998 0.26923397516316483 -0.15946431303784137 0.31615291690525904 0.04293517371509546 -0.196068542851205 0.1501587574925261
0.14994726443321693 0.6652195905499072 -0.1937253546996134 0.5051271717808843 0.07494080667028259 0.11405489984650236 0.21264108103646387 0.07317833589993691
0.23173789040567544 0.6519685619281735 -0.10568353409070386 0.3724618449071023 0.03260561985597284 -0.025942256265339934 0.0040089553472877 -0.1259777649950795
-0.2812919545845463 0.4705505538634429 0.04486266247507878 -0.024217736668432813 0.49287184334977263 -0.1937763340941178 0.533440831860025 -0.6287144430827513
0.23216626459858516 -0.11436543417220589 0.32686559554849753 -0.11369082212404855 -0.2730957756550561 0.21839187695539644 0.03533518959669675 0.4539710933599532
0.14265293697207013 -0.6125018401330709 0.39478640811353444 -0.5057510566162821 0.6399218768679902 0.026864866017965047 0.42834400007072604 0.2687448204882961
0.18840291830239828 -0.02666537816284604 -0.17711878738548156 -0.14474208028866314 -0.5448618158850971 -0.1290462940872769 -0.17501000205303333 -0.23493393365458498
0.5161582205498361 0.19127778417616448 0.07548367236454309 -0.1875989580517304 -0.04611257375448086 0.03666400474291815 0.27154675791607846 -0.19296629578952088
0.6447559195006509 -0.23143244667686327 -0.3040993208251284 -0.2806286912888133 0.24573997389961796 0.37007915333191055 0.06396639612764629 0.12572779084685726
-0.006494902064519345 -0.04204080138376247 0.17744237950038186 -0.4991937798355656 0.6053583449417925 0.4870460869155118 0.31255230984483734 0.22925323762938687
-0.4890420352963838 -0.38952498395048774 -0.2918817458013286 0.28057350088654776 0.214943786303325 0.6164665050949788 0.5165099799607978 0.01782754212244369
-0.08404924387975288 0.12540872529119404 -0.623945926622535 -0.4346085673545044 0.4572951196280613 -0.3841915857356212 0.11404592068659367 -0.45181366455662475
-0.15846395043016887 0.22514269878473617 0.3067357733728134 -0.37451836056010807 0.36392745046291397 0.19780917419972954 0.006518783251268544 0.42829013119855436
0.07499504001155302 -0.13643226602666259 0.024801642377496873 -0.42574982379682846 0.4442514396088143 -0.11041172743440425 -0.185918152261215 -0.3970919647655363
00000000: ce42 c4c9 8514 dd3f 0a82 e94c 7e67 b23f
00000010: d40f d05a 73ac d33f 72d0 7f85 e497 c8bf
00000020: 3c30 3399 066c 9cbf acd6 c250 b43b e0bf
00000030: 34ef 5679 0d12 c6bf fade c0c0 d1e1 a0bf
00000040: ba67 d6d8 d520 e0bf b3dd df76 6637 e3bf
00000050: 0aad 8cc0 15ef e13f 9099 8a8c edde be3f
00000060: 4011 7f90 1797 c33f 7a44 ad8d 258b a43f
00000070: 31d2 96e1 1e10 be3f d8d5 dbd9 3b08 ba3f
00000080: 9083 abd0 47f0 dcbf e76a 49c6 d419 b0bf
00000090: 9470 bbaa 6e4c adbf 271c 054e a869 a93f
000000a0: 74fe 8bb4 13bb debf 32db 33a3 3256 cf3f
000000b0: 435d 66b4 df34 bbbf fe3c 7393 148e cb3f
000000c0: bfe2 2657 4977 b83f 329d 9770 ed99 c13f
000000d0: 307f 0181 2751 95bf cc1a cb94 55fe c4bf
000000e0: 82aa 552c 0848 b1bf 3ac0 a9fa 1e99 b43f
000000f0: d840 2770 8598 e9bf 769d 644a 3a1e ab3f
00000100: 6628 33d7 bb5f d1bf a438 fa75 bbd8 c73f
00000110: 3600 7c93 a6b6 d2bf 3e4c 9546 1f93 cabf
00000120: c6ef 6be6 7503 d9bf 3c21 598a a7c1 cebf
00000130: 5c82 10a3 e5d9 e53f 2db8 6e28 dd1f c9bf
00000140: 7cca 9b62 a5a5 74bf 795e 7fa9 0155 e5bf
00000150: 9be0 c3f4 2ee3 c1bf e96e 283d a7a5 d73f
00000160: 780b 6a93 031c d03f 3694 c00b 8dd1 b23f
00000170: 8590 6bd3 dc4b a2bf 2595 7e5d afd0 cb3f
00000180: 5615 8da7 0ecf c6bf 69c4 e332 41f7 ca3f
00000190: 02fd 338f 856b d4bf 4ed5 b6e6 8c21 c9bf
000001a0: 6569 76b3 7d32 dc3f 1641 70bc d238 e0bf
000001b0: 6197 ba27 6126 c13f 3aa3 f9a6 f0d9 d1bf
000001c0: 0030 c660 2bab d9bf 4d15 6cbe aa90 b33f
000001d0: 01ef b65b 2161 bf3f e73b 6f80 94a9 b93f
000001e0: 48aa abc0 0cf0 bcbf d66f 658b 8cf3 babf
000001f0: 06f5 6a3b 39dd d23f 9f68 e6c1 4e58 d2bf
00000200: be1f 01bc b3e7 e2bf 996f f444 d5ba c63f
00000210: c0ba 2ea9 c892 d13f 28ce 2fd5 9614 71bf
00000220: 7a1b 767b 82b2 b2bf 2ca4 1eac 2291 d0bf
00000230: 98a8 9bc0 ca10 b8bf 78e1 829b d381 c43f
00000240: 106d ab78 9527 afbf 0796 53ee cc1e ca3f
00000250: 9441 5f93 7859 e33f 7456 7013 ed22 c63f
00000260: 5689 3e11 1297 be3f 0784 9cc1 c92f c8bf
00000270: 788e a245 088c bdbf d142 6392 e7e8 cb3f
00000280: 8cc1 a0d3 81dd da3f 26d4 1c60 d133 cebf
00000290: b272 6663 e109 d43f 8198 d050 9e0b b03f
000002a0: a25b 3f8c d36f d4bf ee6f 171a 6c1b d3bf
000002b0: dfde dc44 c642 c1bf d4fd 6f39 247f d83f
000002c0: b61f 7708 b508 cabf ed28 9fcd 3899 b4bf
000002d0: dd66 4c61 62e3 bf3f dc27 2fe5 163d c03f
000002e0: 2484 294c e8b8 b7bf 162a eec3 8103 e43f
000002f0: 5e07 033b 51f7 c33f 0f18 b5e7 4737 a93f
00000300: ab5b f3c0 f1ee cf3f ff31 8668 ba19 8ebf
00000310: d722 5325 7270 b93f e62a 7d3f 0a22 d83f
00000320: 455a a938 9f50 d73f 20ce 7b23 e5f6 e1bf
00000330: 3409 64eb 1c14 c93f 3e1d 7024 bf7c d4bf
00000340: 7c7d 32c3 5257 d83f 6403 bdcf 3e7c 943f
00000350: cec5 ff14 8e58 bcbf eeb2 2c67 4a65 c13f
00000360: 4081 8fc2 303d e03f 4e97 b8d8 74d4 a7bf
00000370: ca77 b720 4d21 d8bf 54fc 7899 f961 ce3f
00000380: 03ea d698 f387 d33f 64f1 9e95 2f0f c6bf
00000390: 93af f95f b896 c33f c3ac 4a62 7b05 cdbf
000003a0: dd5b 3a53 c367 d5bf f4a6 0efe 5297 c4bf
000003b0: 7a5f c646 b03e be3f f3eb 9811 eeaf b03f
000003c0: a5d5 0141 94e3 e43f a93b a3de 0a10 d2bf
000003d0: 487f f9df 8d63 e4bf 037d a90f 1cca b93f
000003e0: 4794 7bbb 0869 d8bf 6b39 498d fcf0 e93f
000003f0: 42bc 2998 5080 ddbf 289a 156a 66b4 af3f
00000400: 0ca7 ec8e a816 d0bf dd36 cdaf 5192 b33f
00000410: d05a 0263 076a cc3f 50e4 8f67 9d5f d93f
00000420: 4a59 a8f0 c896 cf3f 52db 05d6 066f cfbf
00000430: 8cdc 1bbf 9f81 d9bf c8bd 6f75 f95a cd3f
00000440: 4002 ad3b f71e b53f b43c 31b7 63e3 c7bf
00000450: 13bf 47de 8b99 d4bf f8b3 0e36 8552 debf
00000460: 006d 618b db83 3c3f 4238 b27e 49a9 df3f
00000470: 13c7 7250 a049 c93f 100e c437 81d7 c13f
00000480: 665a 3403 db88 c6bf f646 ed27 640c c03f
00000490: 4a10 9323 213b d13f 9435 b09c 5369 c4bf
000004a0: 7028 a971 d93b d43f eea8 e85d 99fb a53f
000004b0: 98ff a825 c618 c9bf eab6 51f4 6638 c33f
000004c0: 28c3 6ed2 7831 c33f 6840 4298 7a49 e53f
000004d0: a1a0 6b0f fecb c8bf fed5 6375 002a e03f
000004e0: 91e3 c819 522f b33f 740e cab0 b332 bd3f
000004f0: b139 6bac d237 cb3f 4e47 77bf d0bb b23f
00000500: 06a9 4452 96a9 cd3f 910d 702c eddc e43f
00000510: b030 a57a 130e bbbf a690 b834 6ad6 d73f
00000520: eaf8 e40d afb1 a03f b6f1 f958 9b90 9abf
00000530: d83d b9c1 b16b 703f 40a9 5616 0a20 c0bf
00000540: 0563 64f8 af00 d2bf b852 fd11 801d de3f
00000550: a4ad 4828 3df8 a63f b46f e5cb 88cc 98bf
00000560: d69d 1358 368b df3f 0d25 d6b4 a9cd c8bf
00000570: 3013 e681 f211 e13f 4f06 72c0 6d1e e4bf
00000580: 61bb d7c8 9fb7 cd3f b7fd 8f97 0d47 bdbf
00000590: 0360 c4ac 5deb d43f e6cd e07a d71a bdbf
000005a0: 5d4f 47b4 667a d1bf 5524 9ed8 43f4 cb3f
000005b0: aa79 6e37 7417 a23f f8dc d3c5 dc0d dd3f
000005c0: 0f98 7c91 7342 c23f 4290 8375 9d99 e3bf
000005d0: 2930 f035 2e44 d93f 35b3 02d7 1c2f e0bf
000005e0: 1a93 a471 3d7a e43f 6c96 d5a3 7682 9b3f
000005f0: 3676 eff3 fc69 db3f 25dd bd79 1d33 d13f
00000600: 9735 4a3a 961d c83f b25f 943c 2b4e 9bbf
00000610: 07f6 a913 d4ab c6bf aeef 9892 e886 c2bf
00000620: ee19 020c 826f e1bf 5e2e 63c6 9684 c0bf
00000630: b534 a54d ba66 c6bf 8e2f e2ac 5012 cebf
00000640: d856 9a3e 5e84 e03f e475 be59 ca7b c83f
00000650: 8e0c 30e0 e552 b33f 1345 cc1e 3e03 c8bf
00000660: d075 6b38 119c a7bf 8958 9fda 9fc5 a23f
00000670: 9566 25a7 0561 d13f 79b8 d29c 1eb3 c8bf
00000680: ea0b 852a d7a1 e43f 1dee da12 949f cdbf
00000690: d580 6bff 5c76 d3bf 26e7 d90a d2f5 d1bf
000006a0: 1700 9c4f 6874 cf3f b47b 1f79 60af d73f
000006b0: d645 690b 1a60 b03f b05a f126 d917 c03f
000006c0: 3049 53ff 659a 7abf b6ef 1436 5f86 a5bf
000006d0: af74 7090 6eb6 c63f 0baa b077 caf2 dfbf
000006e0: 8a57 bc76 185f e33f f599 bc59 c32b df3f
000006f0: 55a9 4467 db00 d43f 1467 0f8b 2b58 cd3f
00000700: 5ce7 fdf6 764c dfbf 8cb4 c232 faed d8bf
00000710: a507 21c6 30ae d2bf 10a5 9b8e eaf4 d13f
00000720: 505a 532a 4783 cb3f 95cb cef6 17ba e33f
00000730: dfa7 ffef 3f87 e03f 4e2c 8919 6241 923f
00000740: b091 b751 4084 b5bf f31d e1a2 640d c03f
00000750: 571e aa72 5df7 e3bf 2d56 d673 a0d0 dbbf
00000760: 4d11 dbbf 5244 dd3f fe80 084e 9896 d8bf
00000770: 4654 970b 1d32 bd3f 0606 4adc 83ea dcbf
00000780: 2aa5 58f6 8b48 c4bf ed57 1bd8 79d1 cc3f
00000790: 6d91 c914 8fa1 d33f 5fdc 96db 1bf8 d7bf
000007a0: 48b6 765c 964a d73f 7caf 049f cf51 c93f
000007b0: 0c8a fb8d 70b3 7a3f 39a1 ac02 1b69 db3f
000007c0: 9a3a 36fc df32 b33f 7012 5acc 9c76 c1bf
000007d0: ceff 970b 9a65 993f 8c0c 5f30 7c3f dbbf
000007e0: 9a87 1497 9d6e dc3f 3cf6 6c66 f143 bcbf
000007f0: d8ea d87f 2acc c7bf fe07 8b6a f469 d9bf
